#loc = loc("C:\\Users\\sachin chaudhary\\frontier-training-lab\\kernels\\flash_attention.py":595:0)
#loc112 = loc("C:\\Users\\Public\\Miniconda3\\Lib\\site-packages\\triton\\language\\standard.py":177:0)
#loc114 = loc(unknown)
#loc117 = loc("C:\\Users\\Public\\Miniconda3\\Lib\\site-packages\\triton\\language\\standard.py":169:0)
#loc121 = loc("C:\\Users\\Public\\Miniconda3\\Lib\\site-packages\\triton\\language\\standard.py":287:0)
#loc125 = loc("C:\\Users\\Public\\Miniconda3\\Lib\\site-packages\\triton\\language\\standard.py":262:0)
#loc129 = loc("q_ptr"(#loc))
#loc130 = loc("k_ptr"(#loc))
#loc131 = loc("v_ptr"(#loc))
#loc132 = loc("out_ptr"(#loc))
#loc133 = loc("lse_ptr"(#loc))
#loc134 = loc("B"(#loc))
#loc135 = loc("H"(#loc))
#loc136 = loc("T"(#loc))
#loc137 = loc("D"(#loc))
#loc138 = loc("q_stride_b"(#loc))
#loc139 = loc("q_stride_h"(#loc))
#loc140 = loc("q_stride_t"(#loc))
#loc141 = loc("k_stride_b"(#loc))
#loc142 = loc("k_stride_h"(#loc))
#loc143 = loc("k_stride_t"(#loc))
#loc144 = loc("v_stride_b"(#loc))
#loc145 = loc("v_stride_h"(#loc))
#loc146 = loc("v_stride_t"(#loc))
#loc147 = loc("out_stride_b"(#loc))
#loc148 = loc("out_stride_h"(#loc))
#loc149 = loc("out_stride_t"(#loc))
#loc150 = loc("lse_stride_b"(#loc))
#loc151 = loc("lse_stride_h"(#loc))
#loc252 = loc("input"(#loc112))
#loc253 = loc("a"(#loc117))
#loc254 = loc("b"(#loc117))
#loc255 = loc("input"(#loc121))
#loc256 = loc("a"(#loc125))
#loc257 = loc("b"(#loc125))
module {
  tt.func public @_flash_attention_fwd_kernel(%q_ptr: !tt.ptr<f32> {tt.divisibility = 16 : i32} loc("q_ptr"(#loc)), %k_ptr: !tt.ptr<f32> {tt.divisibility = 16 : i32} loc("k_ptr"(#loc)), %v_ptr: !tt.ptr<f32> {tt.divisibility = 16 : i32} loc("v_ptr"(#loc)), %out_ptr: !tt.ptr<f32> {tt.divisibility = 16 : i32} loc("out_ptr"(#loc)), %lse_ptr: !tt.ptr<f32> {tt.divisibility = 16 : i32} loc("lse_ptr"(#loc)), %B: i32 {tt.divisibility = 16 : i32} loc("B"(#loc)), %H: i32 {tt.divisibility = 16 : i32} loc("H"(#loc)), %T: i32 {tt.divisibility = 16 : i32} loc("T"(#loc)), %D: i32 {tt.divisibility = 16 : i32} loc("D"(#loc)), %q_stride_b: i32 {tt.divisibility = 16 : i32} loc("q_stride_b"(#loc)), %q_stride_h: i32 {tt.divisibility = 16 : i32} loc("q_stride_h"(#loc)), %q_stride_t: i32 {tt.divisibility = 16 : i32} loc("q_stride_t"(#loc)), %k_stride_b: i32 {tt.divisibility = 16 : i32} loc("k_stride_b"(#loc)), %k_stride_h: i32 {tt.divisibility = 16 : i32} loc("k_stride_h"(#loc)), %k_stride_t: i32 {tt.divisibility = 16 : i32} loc("k_stride_t"(#loc)), %v_stride_b: i32 {tt.divisibility = 16 : i32} loc("v_stride_b"(#loc)), %v_stride_h: i32 {tt.divisibility = 16 : i32} loc("v_stride_h"(#loc)), %v_stride_t: i32 {tt.divisibility = 16 : i32} loc("v_stride_t"(#loc)), %out_stride_b: i32 {tt.divisibility = 16 : i32} loc("out_stride_b"(#loc)), %out_stride_h: i32 {tt.divisibility = 16 : i32} loc("out_stride_h"(#loc)), %out_stride_t: i32 {tt.divisibility = 16 : i32} loc("out_stride_t"(#loc)), %lse_stride_b: i32 {tt.divisibility = 16 : i32} loc("lse_stride_b"(#loc)), %lse_stride_h: i32 {tt.divisibility = 16 : i32} loc("lse_stride_h"(#loc))) attributes {noinline = false} {
    %pid_m = tt.get_program_id x : i32 loc(#loc152)
    %pid_bh = tt.get_program_id y : i32 loc(#loc153)
    %b = arith.divsi %pid_bh, %H : i32 loc(#loc154)
    %h = arith.remsi %pid_bh, %H : i32 loc(#loc155)
    %q_start = arith.constant 8 : i32 loc(#loc156)
    %q_start_0 = arith.constant 8 : i32 loc(#loc156)
    %q_start_1 = arith.extsi %pid_m : i32 to i64 loc(#loc156)
    %q_start_2 = arith.extsi %q_start_0 : i32 to i64 loc(#loc156)
    %q_start_3 = arith.muli %q_start_1, %q_start_2 : i64 loc(#loc156)
    %q_start_4 = arith.constant 2147483647 : i64 loc(#loc156)
    %q_start_5 = arith.constant -2147483648 : i64 loc(#loc156)
    %q_start_6 = arith.cmpi sle, %q_start_3, %q_start_4 : i64 loc(#loc156)
    %q_start_7 = arith.cmpi sge, %q_start_3, %q_start_5 : i64 loc(#loc156)
    %q_start_8 = arith.andi %q_start_6, %q_start_7 : i1 loc(#loc156)
    %q_start_9 = arith.muli %pid_m, %q_start_0 : i32 loc(#loc156)
    %offs_m = tt.make_range {end = 8 : i32, start = 0 : i32} : tensor<8xi32> loc(#loc157)
    %offs_m_10 = tt.splat %q_start_9 : i32 -> tensor<8xi32> loc(#loc158)
    %offs_m_11 = arith.extsi %offs_m_10 : tensor<8xi32> to tensor<8xi64> loc(#loc158)
    %offs_m_12 = arith.extsi %offs_m : tensor<8xi32> to tensor<8xi64> loc(#loc158)
    %offs_m_13 = arith.addi %offs_m_11, %offs_m_12 : tensor<8xi64> loc(#loc158)
    %offs_m_14 = arith.constant 2147483647 : i64 loc(#loc158)
    %offs_m_15 = arith.constant -2147483648 : i64 loc(#loc158)
    %offs_m_16 = arith.constant dense<2147483647> : tensor<8xi64> loc(#loc158)
    %offs_m_17 = arith.cmpi sle, %offs_m_13, %offs_m_16 : tensor<8xi64> loc(#loc158)
    %offs_m_18 = arith.constant dense<-2147483648> : tensor<8xi64> loc(#loc158)
    %offs_m_19 = arith.cmpi sge, %offs_m_13, %offs_m_18 : tensor<8xi64> loc(#loc158)
    %offs_m_20 = arith.andi %offs_m_17, %offs_m_19 : tensor<8xi1> loc(#loc158)
    %offs_m_21 = arith.addi %offs_m_10, %offs_m : tensor<8xi32> loc(#loc158)
    %offs_n = tt.make_range {end = 16 : i32, start = 0 : i32} : tensor<16xi32> loc(#loc159)
    %offs_d = tt.make_range {end = 64 : i32, start = 0 : i32} : tensor<64xi32> loc(#loc160)
    %q_ptrs = arith.extsi %b : i32 to i64 loc(#loc161)
    %q_ptrs_22 = arith.extsi %q_stride_b : i32 to i64 loc(#loc161)
    %q_ptrs_23 = arith.muli %q_ptrs, %q_ptrs_22 : i64 loc(#loc161)
    %q_ptrs_24 = arith.constant 2147483647 : i64 loc(#loc161)
    %q_ptrs_25 = arith.constant -2147483648 : i64 loc(#loc161)
    %q_ptrs_26 = arith.cmpi sle, %q_ptrs_23, %q_ptrs_24 : i64 loc(#loc161)
    %q_ptrs_27 = arith.cmpi sge, %q_ptrs_23, %q_ptrs_25 : i64 loc(#loc161)
    %q_ptrs_28 = arith.andi %q_ptrs_26, %q_ptrs_27 : i1 loc(#loc161)
    %q_ptrs_29 = arith.muli %b, %q_stride_b : i32 loc(#loc161)
    %q_ptrs_30 = tt.addptr %q_ptr, %q_ptrs_29 : !tt.ptr<f32>, i32 loc(#loc162)
    %q_ptrs_31 = arith.extsi %h : i32 to i64 loc(#loc163)
    %q_ptrs_32 = arith.extsi %q_stride_h : i32 to i64 loc(#loc163)
    %q_ptrs_33 = arith.muli %q_ptrs_31, %q_ptrs_32 : i64 loc(#loc163)
    %q_ptrs_34 = arith.constant 2147483647 : i64 loc(#loc163)
    %q_ptrs_35 = arith.constant -2147483648 : i64 loc(#loc163)
    %q_ptrs_36 = arith.cmpi sle, %q_ptrs_33, %q_ptrs_34 : i64 loc(#loc163)
    %q_ptrs_37 = arith.cmpi sge, %q_ptrs_33, %q_ptrs_35 : i64 loc(#loc163)
    %q_ptrs_38 = arith.andi %q_ptrs_36, %q_ptrs_37 : i1 loc(#loc163)
    %q_ptrs_39 = arith.muli %h, %q_stride_h : i32 loc(#loc163)
    %q_ptrs_40 = tt.addptr %q_ptrs_30, %q_ptrs_39 : !tt.ptr<f32>, i32 loc(#loc164)
    %q_ptrs_41 = tt.expand_dims %offs_m_21 {axis = 1 : i32} : tensor<8xi32> -> tensor<8x1xi32> loc(#loc165)
    %q_ptrs_42 = tt.splat %q_stride_t : i32 -> tensor<8x1xi32> loc(#loc166)
    %q_ptrs_43 = arith.extsi %q_ptrs_41 : tensor<8x1xi32> to tensor<8x1xi64> loc(#loc166)
    %q_ptrs_44 = arith.extsi %q_ptrs_42 : tensor<8x1xi32> to tensor<8x1xi64> loc(#loc166)
    %q_ptrs_45 = arith.muli %q_ptrs_43, %q_ptrs_44 : tensor<8x1xi64> loc(#loc166)
    %q_ptrs_46 = arith.constant 2147483647 : i64 loc(#loc166)
    %q_ptrs_47 = arith.constant -2147483648 : i64 loc(#loc166)
    %q_ptrs_48 = arith.constant dense<2147483647> : tensor<8x1xi64> loc(#loc166)
    %q_ptrs_49 = arith.cmpi sle, %q_ptrs_45, %q_ptrs_48 : tensor<8x1xi64> loc(#loc166)
    %q_ptrs_50 = arith.constant dense<-2147483648> : tensor<8x1xi64> loc(#loc166)
    %q_ptrs_51 = arith.cmpi sge, %q_ptrs_45, %q_ptrs_50 : tensor<8x1xi64> loc(#loc166)
    %q_ptrs_52 = arith.andi %q_ptrs_49, %q_ptrs_51 : tensor<8x1xi1> loc(#loc166)
    %q_ptrs_53 = arith.muli %q_ptrs_41, %q_ptrs_42 : tensor<8x1xi32> loc(#loc166)
    %q_ptrs_54 = tt.splat %q_ptrs_40 : !tt.ptr<f32> -> tensor<8x1x!tt.ptr<f32>> loc(#loc167)
    %q_ptrs_55 = tt.addptr %q_ptrs_54, %q_ptrs_53 : tensor<8x1x!tt.ptr<f32>>, tensor<8x1xi32> loc(#loc167)
    %q_ptrs_56 = tt.expand_dims %offs_d {axis = 0 : i32} : tensor<64xi32> -> tensor<1x64xi32> loc(#loc168)
    %q_ptrs_57 = arith.constant 1 : i32 loc(#loc169)
    %q_ptrs_58 = arith.constant 1 : i32 loc(#loc169)
    %q_ptrs_59 = arith.constant dense<1> : tensor<1x64xi32> loc(#loc169)
    %q_ptrs_60 = arith.extsi %q_ptrs_56 : tensor<1x64xi32> to tensor<1x64xi64> loc(#loc169)
    %q_ptrs_61 = arith.extsi %q_ptrs_59 : tensor<1x64xi32> to tensor<1x64xi64> loc(#loc169)
    %q_ptrs_62 = arith.muli %q_ptrs_60, %q_ptrs_61 : tensor<1x64xi64> loc(#loc169)
    %q_ptrs_63 = arith.constant 2147483647 : i64 loc(#loc169)
    %q_ptrs_64 = arith.constant -2147483648 : i64 loc(#loc169)
    %q_ptrs_65 = arith.constant dense<2147483647> : tensor<1x64xi64> loc(#loc169)
    %q_ptrs_66 = arith.cmpi sle, %q_ptrs_62, %q_ptrs_65 : tensor<1x64xi64> loc(#loc169)
    %q_ptrs_67 = arith.constant dense<-2147483648> : tensor<1x64xi64> loc(#loc169)
    %q_ptrs_68 = arith.cmpi sge, %q_ptrs_62, %q_ptrs_67 : tensor<1x64xi64> loc(#loc169)
    %q_ptrs_69 = arith.andi %q_ptrs_66, %q_ptrs_68 : tensor<1x64xi1> loc(#loc169)
    %q_ptrs_70 = arith.muli %q_ptrs_56, %q_ptrs_59 : tensor<1x64xi32> loc(#loc169)
    %q_ptrs_71 = tt.broadcast %q_ptrs_55 : tensor<8x1x!tt.ptr<f32>> -> tensor<8x64x!tt.ptr<f32>> loc(#loc170)
    %q_ptrs_72 = tt.broadcast %q_ptrs_70 : tensor<1x64xi32> -> tensor<8x64xi32> loc(#loc170)
    %q_ptrs_73 = tt.addptr %q_ptrs_71, %q_ptrs_72 : tensor<8x64x!tt.ptr<f32>>, tensor<8x64xi32> loc(#loc170)
    %q = tt.expand_dims %offs_m_21 {axis = 1 : i32} : tensor<8xi32> -> tensor<8x1xi32> loc(#loc171)
    %q_74 = tt.splat %T : i32 -> tensor<8x1xi32> loc(#loc172)
    %q_75 = arith.cmpi slt, %q, %q_74 : tensor<8x1xi32> loc(#loc172)
    %q_76 = arith.constant 0.000000e+00 : f32 loc(#loc173)
    %q_77 = tt.broadcast %q_75 : tensor<8x1xi1> -> tensor<8x64xi1> loc(#loc173)
    %q_78 = arith.constant dense<0.000000e+00> : tensor<8x64xf32> loc(#loc173)
    %q_79 = tt.load %q_ptrs_73, %q_77, %q_78 : tensor<8x64x!tt.ptr<f32>> loc(#loc173)
    %m = arith.constant 0xFF800000 : f32 loc(#loc174)
    %m_80 = arith.constant dense<0xFF800000> : tensor<8xf32> loc(#loc174)
    %l = arith.constant 0.000000e+00 : f32 loc(#loc175)
    %l_81 = arith.constant dense<0.000000e+00> : tensor<8xf32> loc(#loc175)
    %acc = tt.call @triton.language.standard.zeros__Tc8_c64T_cfp32() : () -> tensor<8x64xf32> loc(#loc176)
    %scale = arith.sitofp %D : i32 to f32 loc(#loc177)
    %scale_82 = math.sqrt %scale : f32 loc(#loc178)
    %scale_83 = arith.constant 1.000000e+00 : f32 loc(#loc179)
    %scale_84 = arith.constant 1.000000e+00 : f32 loc(#loc179)
    %scale_85 = arith.divf %scale_84, %scale_82 : f32 loc(#loc179)
    %c0_i32 = arith.constant 0 : i32 loc(#loc29)
    %c16_i32 = arith.constant 16 : i32 loc(#loc29)
    %0 = arith.bitcast %c0_i32 : i32 to i32 loc(#loc29)
    %1 = arith.bitcast %T : i32 to i32 loc(#loc29)
    %2 = arith.bitcast %c16_i32 : i32 to i32 loc(#loc29)
    %3 = ub.poison : i32 loc(#loc29)
    %acc_86:3 = scf.for %n_start = %0 to %1 step %2 iter_args(%m_177 = %m_80, %l_178 = %l_81, %acc_179 = %acc) -> (tensor<8xf32>, tensor<8xf32>, tensor<8x64xf32>)  : i32 {
      %n = tt.splat %n_start : i32 -> tensor<16xi32> loc(#loc181)
      %n_180 = arith.extsi %n : tensor<16xi32> to tensor<16xi64> loc(#loc181)
      %n_181 = arith.extsi %offs_n : tensor<16xi32> to tensor<16xi64> loc(#loc181)
      %n_182 = arith.addi %n_180, %n_181 : tensor<16xi64> loc(#loc181)
      %n_183 = arith.constant 2147483647 : i64 loc(#loc181)
      %n_184 = arith.constant -2147483648 : i64 loc(#loc181)
      %n_185 = arith.constant dense<2147483647> : tensor<16xi64> loc(#loc181)
      %n_186 = arith.cmpi sle, %n_182, %n_185 : tensor<16xi64> loc(#loc181)
      %n_187 = arith.constant dense<-2147483648> : tensor<16xi64> loc(#loc181)
      %n_188 = arith.cmpi sge, %n_182, %n_187 : tensor<16xi64> loc(#loc181)
      %n_189 = arith.andi %n_186, %n_188 : tensor<16xi1> loc(#loc181)
      %n_190 = arith.addi %n, %offs_n : tensor<16xi32> loc(#loc181)
      %k_ptrs = arith.extsi %b : i32 to i64 loc(#loc182)
      %k_ptrs_191 = arith.extsi %k_stride_b : i32 to i64 loc(#loc182)
      %k_ptrs_192 = arith.muli %k_ptrs, %k_ptrs_191 : i64 loc(#loc182)
      %k_ptrs_193 = arith.constant 2147483647 : i64 loc(#loc182)
      %k_ptrs_194 = arith.constant -2147483648 : i64 loc(#loc182)
      %k_ptrs_195 = arith.cmpi sle, %k_ptrs_192, %k_ptrs_193 : i64 loc(#loc182)
      %k_ptrs_196 = arith.cmpi sge, %k_ptrs_192, %k_ptrs_194 : i64 loc(#loc182)
      %k_ptrs_197 = arith.andi %k_ptrs_195, %k_ptrs_196 : i1 loc(#loc182)
      %k_ptrs_198 = arith.muli %b, %k_stride_b : i32 loc(#loc182)
      %k_ptrs_199 = tt.addptr %k_ptr, %k_ptrs_198 : !tt.ptr<f32>, i32 loc(#loc183)
      %k_ptrs_200 = arith.extsi %h : i32 to i64 loc(#loc184)
      %k_ptrs_201 = arith.extsi %k_stride_h : i32 to i64 loc(#loc184)
      %k_ptrs_202 = arith.muli %k_ptrs_200, %k_ptrs_201 : i64 loc(#loc184)
      %k_ptrs_203 = arith.constant 2147483647 : i64 loc(#loc184)
      %k_ptrs_204 = arith.constant -2147483648 : i64 loc(#loc184)
      %k_ptrs_205 = arith.cmpi sle, %k_ptrs_202, %k_ptrs_203 : i64 loc(#loc184)
      %k_ptrs_206 = arith.cmpi sge, %k_ptrs_202, %k_ptrs_204 : i64 loc(#loc184)
      %k_ptrs_207 = arith.andi %k_ptrs_205, %k_ptrs_206 : i1 loc(#loc184)
      %k_ptrs_208 = arith.muli %h, %k_stride_h : i32 loc(#loc184)
      %k_ptrs_209 = tt.addptr %k_ptrs_199, %k_ptrs_208 : !tt.ptr<f32>, i32 loc(#loc185)
      %k_ptrs_210 = tt.expand_dims %n_190 {axis = 1 : i32} : tensor<16xi32> -> tensor<16x1xi32> loc(#loc186)
      %k_ptrs_211 = tt.splat %k_stride_t : i32 -> tensor<16x1xi32> loc(#loc187)
      %k_ptrs_212 = arith.extsi %k_ptrs_210 : tensor<16x1xi32> to tensor<16x1xi64> loc(#loc187)
      %k_ptrs_213 = arith.extsi %k_ptrs_211 : tensor<16x1xi32> to tensor<16x1xi64> loc(#loc187)
      %k_ptrs_214 = arith.muli %k_ptrs_212, %k_ptrs_213 : tensor<16x1xi64> loc(#loc187)
      %k_ptrs_215 = arith.constant 2147483647 : i64 loc(#loc187)
      %k_ptrs_216 = arith.constant -2147483648 : i64 loc(#loc187)
      %k_ptrs_217 = arith.constant dense<2147483647> : tensor<16x1xi64> loc(#loc187)
      %k_ptrs_218 = arith.cmpi sle, %k_ptrs_214, %k_ptrs_217 : tensor<16x1xi64> loc(#loc187)
      %k_ptrs_219 = arith.constant dense<-2147483648> : tensor<16x1xi64> loc(#loc187)
      %k_ptrs_220 = arith.cmpi sge, %k_ptrs_214, %k_ptrs_219 : tensor<16x1xi64> loc(#loc187)
      %k_ptrs_221 = arith.andi %k_ptrs_218, %k_ptrs_220 : tensor<16x1xi1> loc(#loc187)
      %k_ptrs_222 = arith.muli %k_ptrs_210, %k_ptrs_211 : tensor<16x1xi32> loc(#loc187)
      %k_ptrs_223 = tt.splat %k_ptrs_209 : !tt.ptr<f32> -> tensor<16x1x!tt.ptr<f32>> loc(#loc188)
      %k_ptrs_224 = tt.addptr %k_ptrs_223, %k_ptrs_222 : tensor<16x1x!tt.ptr<f32>>, tensor<16x1xi32> loc(#loc188)
      %k_ptrs_225 = tt.expand_dims %offs_d {axis = 0 : i32} : tensor<64xi32> -> tensor<1x64xi32> loc(#loc189)
      %k_ptrs_226 = arith.constant 1 : i32 loc(#loc190)
      %k_ptrs_227 = arith.constant 1 : i32 loc(#loc190)
      %k_ptrs_228 = arith.constant dense<1> : tensor<1x64xi32> loc(#loc190)
      %k_ptrs_229 = arith.extsi %k_ptrs_225 : tensor<1x64xi32> to tensor<1x64xi64> loc(#loc190)
      %k_ptrs_230 = arith.extsi %k_ptrs_228 : tensor<1x64xi32> to tensor<1x64xi64> loc(#loc190)
      %k_ptrs_231 = arith.muli %k_ptrs_229, %k_ptrs_230 : tensor<1x64xi64> loc(#loc190)
      %k_ptrs_232 = arith.constant 2147483647 : i64 loc(#loc190)
      %k_ptrs_233 = arith.constant -2147483648 : i64 loc(#loc190)
      %k_ptrs_234 = arith.constant dense<2147483647> : tensor<1x64xi64> loc(#loc190)
      %k_ptrs_235 = arith.cmpi sle, %k_ptrs_231, %k_ptrs_234 : tensor<1x64xi64> loc(#loc190)
      %k_ptrs_236 = arith.constant dense<-2147483648> : tensor<1x64xi64> loc(#loc190)
      %k_ptrs_237 = arith.cmpi sge, %k_ptrs_231, %k_ptrs_236 : tensor<1x64xi64> loc(#loc190)
      %k_ptrs_238 = arith.andi %k_ptrs_235, %k_ptrs_237 : tensor<1x64xi1> loc(#loc190)
      %k_ptrs_239 = arith.muli %k_ptrs_225, %k_ptrs_228 : tensor<1x64xi32> loc(#loc190)
      %k_ptrs_240 = tt.broadcast %k_ptrs_224 : tensor<16x1x!tt.ptr<f32>> -> tensor<16x64x!tt.ptr<f32>> loc(#loc191)
      %k_ptrs_241 = tt.broadcast %k_ptrs_239 : tensor<1x64xi32> -> tensor<16x64xi32> loc(#loc191)
      %k_ptrs_242 = tt.addptr %k_ptrs_240, %k_ptrs_241 : tensor<16x64x!tt.ptr<f32>>, tensor<16x64xi32> loc(#loc191)
      %k = tt.expand_dims %n_190 {axis = 1 : i32} : tensor<16xi32> -> tensor<16x1xi32> loc(#loc192)
      %k_243 = tt.splat %T : i32 -> tensor<16x1xi32> loc(#loc193)
      %k_244 = arith.cmpi slt, %k, %k_243 : tensor<16x1xi32> loc(#loc193)
      %k_245 = arith.constant 0.000000e+00 : f32 loc(#loc194)
      %k_246 = tt.broadcast %k_244 : tensor<16x1xi1> -> tensor<16x64xi1> loc(#loc194)
      %k_247 = arith.constant dense<0.000000e+00> : tensor<16x64xf32> loc(#loc194)
      %k_248 = tt.load %k_ptrs_242, %k_246, %k_247 : tensor<16x64x!tt.ptr<f32>> loc(#loc194)
      %v_ptrs = arith.extsi %b : i32 to i64 loc(#loc195)
      %v_ptrs_249 = arith.extsi %v_stride_b : i32 to i64 loc(#loc195)
      %v_ptrs_250 = arith.muli %v_ptrs, %v_ptrs_249 : i64 loc(#loc195)
      %v_ptrs_251 = arith.constant 2147483647 : i64 loc(#loc195)
      %v_ptrs_252 = arith.constant -2147483648 : i64 loc(#loc195)
      %v_ptrs_253 = arith.cmpi sle, %v_ptrs_250, %v_ptrs_251 : i64 loc(#loc195)
      %v_ptrs_254 = arith.cmpi sge, %v_ptrs_250, %v_ptrs_252 : i64 loc(#loc195)
      %v_ptrs_255 = arith.andi %v_ptrs_253, %v_ptrs_254 : i1 loc(#loc195)
      %v_ptrs_256 = arith.muli %b, %v_stride_b : i32 loc(#loc195)
      %v_ptrs_257 = tt.addptr %v_ptr, %v_ptrs_256 : !tt.ptr<f32>, i32 loc(#loc196)
      %v_ptrs_258 = arith.extsi %h : i32 to i64 loc(#loc197)
      %v_ptrs_259 = arith.extsi %v_stride_h : i32 to i64 loc(#loc197)
      %v_ptrs_260 = arith.muli %v_ptrs_258, %v_ptrs_259 : i64 loc(#loc197)
      %v_ptrs_261 = arith.constant 2147483647 : i64 loc(#loc197)
      %v_ptrs_262 = arith.constant -2147483648 : i64 loc(#loc197)
      %v_ptrs_263 = arith.cmpi sle, %v_ptrs_260, %v_ptrs_261 : i64 loc(#loc197)
      %v_ptrs_264 = arith.cmpi sge, %v_ptrs_260, %v_ptrs_262 : i64 loc(#loc197)
      %v_ptrs_265 = arith.andi %v_ptrs_263, %v_ptrs_264 : i1 loc(#loc197)
      %v_ptrs_266 = arith.muli %h, %v_stride_h : i32 loc(#loc197)
      %v_ptrs_267 = tt.addptr %v_ptrs_257, %v_ptrs_266 : !tt.ptr<f32>, i32 loc(#loc198)
      %v_ptrs_268 = tt.expand_dims %n_190 {axis = 1 : i32} : tensor<16xi32> -> tensor<16x1xi32> loc(#loc199)
      %v_ptrs_269 = tt.splat %v_stride_t : i32 -> tensor<16x1xi32> loc(#loc200)
      %v_ptrs_270 = arith.extsi %v_ptrs_268 : tensor<16x1xi32> to tensor<16x1xi64> loc(#loc200)
      %v_ptrs_271 = arith.extsi %v_ptrs_269 : tensor<16x1xi32> to tensor<16x1xi64> loc(#loc200)
      %v_ptrs_272 = arith.muli %v_ptrs_270, %v_ptrs_271 : tensor<16x1xi64> loc(#loc200)
      %v_ptrs_273 = arith.constant 2147483647 : i64 loc(#loc200)
      %v_ptrs_274 = arith.constant -2147483648 : i64 loc(#loc200)
      %v_ptrs_275 = arith.constant dense<2147483647> : tensor<16x1xi64> loc(#loc200)
      %v_ptrs_276 = arith.cmpi sle, %v_ptrs_272, %v_ptrs_275 : tensor<16x1xi64> loc(#loc200)
      %v_ptrs_277 = arith.constant dense<-2147483648> : tensor<16x1xi64> loc(#loc200)
      %v_ptrs_278 = arith.cmpi sge, %v_ptrs_272, %v_ptrs_277 : tensor<16x1xi64> loc(#loc200)
      %v_ptrs_279 = arith.andi %v_ptrs_276, %v_ptrs_278 : tensor<16x1xi1> loc(#loc200)
      %v_ptrs_280 = arith.muli %v_ptrs_268, %v_ptrs_269 : tensor<16x1xi32> loc(#loc200)
      %v_ptrs_281 = tt.splat %v_ptrs_267 : !tt.ptr<f32> -> tensor<16x1x!tt.ptr<f32>> loc(#loc201)
      %v_ptrs_282 = tt.addptr %v_ptrs_281, %v_ptrs_280 : tensor<16x1x!tt.ptr<f32>>, tensor<16x1xi32> loc(#loc201)
      %v_ptrs_283 = tt.expand_dims %offs_d {axis = 0 : i32} : tensor<64xi32> -> tensor<1x64xi32> loc(#loc202)
      %v_ptrs_284 = arith.constant 1 : i32 loc(#loc203)
      %v_ptrs_285 = arith.constant 1 : i32 loc(#loc203)
      %v_ptrs_286 = arith.constant dense<1> : tensor<1x64xi32> loc(#loc203)
      %v_ptrs_287 = arith.extsi %v_ptrs_283 : tensor<1x64xi32> to tensor<1x64xi64> loc(#loc203)
      %v_ptrs_288 = arith.extsi %v_ptrs_286 : tensor<1x64xi32> to tensor<1x64xi64> loc(#loc203)
      %v_ptrs_289 = arith.muli %v_ptrs_287, %v_ptrs_288 : tensor<1x64xi64> loc(#loc203)
      %v_ptrs_290 = arith.constant 2147483647 : i64 loc(#loc203)
      %v_ptrs_291 = arith.constant -2147483648 : i64 loc(#loc203)
      %v_ptrs_292 = arith.constant dense<2147483647> : tensor<1x64xi64> loc(#loc203)
      %v_ptrs_293 = arith.cmpi sle, %v_ptrs_289, %v_ptrs_292 : tensor<1x64xi64> loc(#loc203)
      %v_ptrs_294 = arith.constant dense<-2147483648> : tensor<1x64xi64> loc(#loc203)
      %v_ptrs_295 = arith.cmpi sge, %v_ptrs_289, %v_ptrs_294 : tensor<1x64xi64> loc(#loc203)
      %v_ptrs_296 = arith.andi %v_ptrs_293, %v_ptrs_295 : tensor<1x64xi1> loc(#loc203)
      %v_ptrs_297 = arith.muli %v_ptrs_283, %v_ptrs_286 : tensor<1x64xi32> loc(#loc203)
      %v_ptrs_298 = tt.broadcast %v_ptrs_282 : tensor<16x1x!tt.ptr<f32>> -> tensor<16x64x!tt.ptr<f32>> loc(#loc204)
      %v_ptrs_299 = tt.broadcast %v_ptrs_297 : tensor<1x64xi32> -> tensor<16x64xi32> loc(#loc204)
      %v_ptrs_300 = tt.addptr %v_ptrs_298, %v_ptrs_299 : tensor<16x64x!tt.ptr<f32>>, tensor<16x64xi32> loc(#loc204)
      %v = tt.expand_dims %n_190 {axis = 1 : i32} : tensor<16xi32> -> tensor<16x1xi32> loc(#loc205)
      %v_301 = tt.splat %T : i32 -> tensor<16x1xi32> loc(#loc206)
      %v_302 = arith.cmpi slt, %v, %v_301 : tensor<16x1xi32> loc(#loc206)
      %v_303 = arith.constant 0.000000e+00 : f32 loc(#loc207)
      %v_304 = tt.broadcast %v_302 : tensor<16x1xi1> -> tensor<16x64xi1> loc(#loc207)
      %v_305 = arith.constant dense<0.000000e+00> : tensor<16x64xf32> loc(#loc207)
      %v_306 = tt.load %v_ptrs_300, %v_304, %v_305 : tensor<16x64x!tt.ptr<f32>> loc(#loc207)
      %scores = tt.trans %k_248 {order = array<i32: 1, 0>} : tensor<16x64xf32> -> tensor<64x16xf32> loc(#loc208)
      %scores_307 = arith.constant 0.000000e+00 : f32 loc(#loc209)
      %scores_308 = arith.constant dense<0.000000e+00> : tensor<8x16xf32> loc(#loc209)
      %scores_309 = tt.dot %q_79, %scores, %scores_308, inputPrecision = tf32 : tensor<8x64xf32> * tensor<64x16xf32> -> tensor<8x16xf32> loc(#loc209)
      %scores_310 = tt.splat %scale_85 : f32 -> tensor<8x16xf32> loc(#loc210)
      %scores_311 = arith.mulf %scores_309, %scores_310 : tensor<8x16xf32> loc(#loc210)
      %scores_312 = tt.expand_dims %n_190 {axis = 0 : i32} : tensor<16xi32> -> tensor<1x16xi32> loc(#loc211)
      %scores_313 = tt.splat %T : i32 -> tensor<1x16xi32> loc(#loc212)
      %scores_314 = arith.cmpi slt, %scores_312, %scores_313 : tensor<1x16xi32> loc(#loc212)
      %scores_315 = arith.constant 0xFF800000 : f32 loc(#loc213)
      %scores_316 = arith.constant 0xFF800000 : f32 loc(#loc213)
      %scores_317 = arith.constant dense<0xFF800000> : tensor<8x16xf32> loc(#loc213)
      %scores_318 = tt.broadcast %scores_314 : tensor<1x16xi1> -> tensor<8x16xi1> loc(#loc213)
      %scores_319 = arith.select %scores_318, %scores_311, %scores_317 : tensor<8x16xi1>, tensor<8x16xf32> loc(#loc213)
      %scores_320 = tt.expand_dims %offs_m_21 {axis = 1 : i32} : tensor<8xi32> -> tensor<8x1xi32> loc(#loc214)
      %scores_321 = tt.expand_dims %n_190 {axis = 0 : i32} : tensor<16xi32> -> tensor<1x16xi32> loc(#loc215)
      %scores_322 = tt.broadcast %scores_320 : tensor<8x1xi32> -> tensor<8x16xi32> loc(#loc216)
      %scores_323 = tt.broadcast %scores_321 : tensor<1x16xi32> -> tensor<8x16xi32> loc(#loc216)
      %scores_324 = arith.cmpi sge, %scores_322, %scores_323 : tensor<8x16xi32> loc(#loc216)
      %scores_325 = arith.constant 0xFF800000 : f32 loc(#loc217)
      %scores_326 = arith.constant 0xFF800000 : f32 loc(#loc217)
      %scores_327 = arith.constant dense<0xFF800000> : tensor<8x16xf32> loc(#loc217)
      %scores_328 = arith.select %scores_324, %scores_319, %scores_327 : tensor<8x16xi1>, tensor<8x16xf32> loc(#loc217)
      %m_new = tt.call @triton.language.standard.max__fp32S8_16S_c1_cFalse_cTrue_cFalse(%scores_328) : (tensor<8x16xf32>) -> tensor<8xf32> loc(#loc218)
      %m_new_329 = arith.maxnumf %m_177, %m_new : tensor<8xf32> loc(#loc219)
      %alpha = arith.subf %m_177, %m_new_329 : tensor<8xf32> loc(#loc220)
      %alpha_330 = math.exp %alpha : tensor<8xf32> loc(#loc221)
      %p = tt.expand_dims %m_new_329 {axis = 1 : i32} : tensor<8xf32> -> tensor<8x1xf32> loc(#loc222)
      %p_331 = tt.broadcast %p : tensor<8x1xf32> -> tensor<8x16xf32> loc(#loc223)
      %p_332 = arith.subf %scores_328, %p_331 : tensor<8x16xf32> loc(#loc223)
      %p_333 = math.exp %p_332 : tensor<8x16xf32> loc(#loc224)
      %l_new = arith.mulf %l_178, %alpha_330 : tensor<8xf32> loc(#loc225)
      %l_new_334 = tt.call @triton.language.standard.sum__fp32S8_16S_c1_cFalse_cNone(%p_333) : (tensor<8x16xf32>) -> tensor<8xf32> loc(#loc226)
      %l_new_335 = arith.addf %l_new, %l_new_334 : tensor<8xf32> loc(#loc227)
      %acc_336 = tt.expand_dims %alpha_330 {axis = 1 : i32} : tensor<8xf32> -> tensor<8x1xf32> loc(#loc228)
      %acc_337 = tt.broadcast %acc_336 : tensor<8x1xf32> -> tensor<8x64xf32> loc(#loc229)
      %acc_338 = arith.mulf %acc_179, %acc_337 : tensor<8x64xf32> loc(#loc229)
      %acc_339 = arith.constant 0.000000e+00 : f32 loc(#loc230)
      %acc_340 = arith.constant dense<0.000000e+00> : tensor<8x64xf32> loc(#loc230)
      %acc_341 = tt.dot %p_333, %v_306, %acc_340, inputPrecision = tf32 : tensor<8x16xf32> * tensor<16x64xf32> -> tensor<8x64xf32> loc(#loc230)
      %acc_342 = arith.addf %acc_338, %acc_341 : tensor<8x64xf32> loc(#loc231)
      scf.yield %m_new_329, %l_new_335, %acc_342 : tensor<8xf32>, tensor<8xf32>, tensor<8x64xf32> loc(#loc81)
    } loc(#loc259)
    %out = tt.expand_dims %acc_86#1 {axis = 1 : i32} : tensor<8xf32> -> tensor<8x1xf32> loc(#loc232)
    %out_87 = tt.broadcast %out : tensor<8x1xf32> -> tensor<8x64xf32> loc(#loc233)
    %out_88 = arith.divf %acc_86#2, %out_87 : tensor<8x64xf32> loc(#loc233)
    %lse = math.log %acc_86#1 : tensor<8xf32> loc(#loc234)
    %lse_89 = arith.addf %acc_86#0, %lse : tensor<8xf32> loc(#loc235)
    %out_ptrs = arith.extsi %b : i32 to i64 loc(#loc236)
    %out_ptrs_90 = arith.extsi %out_stride_b : i32 to i64 loc(#loc236)
    %out_ptrs_91 = arith.muli %out_ptrs, %out_ptrs_90 : i64 loc(#loc236)
    %out_ptrs_92 = arith.constant 2147483647 : i64 loc(#loc236)
    %out_ptrs_93 = arith.constant -2147483648 : i64 loc(#loc236)
    %out_ptrs_94 = arith.cmpi sle, %out_ptrs_91, %out_ptrs_92 : i64 loc(#loc236)
    %out_ptrs_95 = arith.cmpi sge, %out_ptrs_91, %out_ptrs_93 : i64 loc(#loc236)
    %out_ptrs_96 = arith.andi %out_ptrs_94, %out_ptrs_95 : i1 loc(#loc236)
    %out_ptrs_97 = arith.muli %b, %out_stride_b : i32 loc(#loc236)
    %out_ptrs_98 = tt.addptr %out_ptr, %out_ptrs_97 : !tt.ptr<f32>, i32 loc(#loc237)
    %out_ptrs_99 = arith.extsi %h : i32 to i64 loc(#loc238)
    %out_ptrs_100 = arith.extsi %out_stride_h : i32 to i64 loc(#loc238)
    %out_ptrs_101 = arith.muli %out_ptrs_99, %out_ptrs_100 : i64 loc(#loc238)
    %out_ptrs_102 = arith.constant 2147483647 : i64 loc(#loc238)
    %out_ptrs_103 = arith.constant -2147483648 : i64 loc(#loc238)
    %out_ptrs_104 = arith.cmpi sle, %out_ptrs_101, %out_ptrs_102 : i64 loc(#loc238)
    %out_ptrs_105 = arith.cmpi sge, %out_ptrs_101, %out_ptrs_103 : i64 loc(#loc238)
    %out_ptrs_106 = arith.andi %out_ptrs_104, %out_ptrs_105 : i1 loc(#loc238)
    %out_ptrs_107 = arith.muli %h, %out_stride_h : i32 loc(#loc238)
    %out_ptrs_108 = tt.addptr %out_ptrs_98, %out_ptrs_107 : !tt.ptr<f32>, i32 loc(#loc239)
    %out_ptrs_109 = tt.expand_dims %offs_m_21 {axis = 1 : i32} : tensor<8xi32> -> tensor<8x1xi32> loc(#loc240)
    %out_ptrs_110 = tt.splat %out_stride_t : i32 -> tensor<8x1xi32> loc(#loc241)
    %out_ptrs_111 = arith.extsi %out_ptrs_109 : tensor<8x1xi32> to tensor<8x1xi64> loc(#loc241)
    %out_ptrs_112 = arith.extsi %out_ptrs_110 : tensor<8x1xi32> to tensor<8x1xi64> loc(#loc241)
    %out_ptrs_113 = arith.muli %out_ptrs_111, %out_ptrs_112 : tensor<8x1xi64> loc(#loc241)
    %out_ptrs_114 = arith.constant 2147483647 : i64 loc(#loc241)
    %out_ptrs_115 = arith.constant -2147483648 : i64 loc(#loc241)
    %out_ptrs_116 = arith.constant dense<2147483647> : tensor<8x1xi64> loc(#loc241)
    %out_ptrs_117 = arith.cmpi sle, %out_ptrs_113, %out_ptrs_116 : tensor<8x1xi64> loc(#loc241)
    %out_ptrs_118 = arith.constant dense<-2147483648> : tensor<8x1xi64> loc(#loc241)
    %out_ptrs_119 = arith.cmpi sge, %out_ptrs_113, %out_ptrs_118 : tensor<8x1xi64> loc(#loc241)
    %out_ptrs_120 = arith.andi %out_ptrs_117, %out_ptrs_119 : tensor<8x1xi1> loc(#loc241)
    %out_ptrs_121 = arith.muli %out_ptrs_109, %out_ptrs_110 : tensor<8x1xi32> loc(#loc241)
    %out_ptrs_122 = tt.splat %out_ptrs_108 : !tt.ptr<f32> -> tensor<8x1x!tt.ptr<f32>> loc(#loc242)
    %out_ptrs_123 = tt.addptr %out_ptrs_122, %out_ptrs_121 : tensor<8x1x!tt.ptr<f32>>, tensor<8x1xi32> loc(#loc242)
    %out_ptrs_124 = tt.expand_dims %offs_d {axis = 0 : i32} : tensor<64xi32> -> tensor<1x64xi32> loc(#loc243)
    %out_ptrs_125 = arith.constant 1 : i32 loc(#loc244)
    %out_ptrs_126 = arith.constant 1 : i32 loc(#loc244)
    %out_ptrs_127 = arith.constant dense<1> : tensor<1x64xi32> loc(#loc244)
    %out_ptrs_128 = arith.extsi %out_ptrs_124 : tensor<1x64xi32> to tensor<1x64xi64> loc(#loc244)
    %out_ptrs_129 = arith.extsi %out_ptrs_127 : tensor<1x64xi32> to tensor<1x64xi64> loc(#loc244)
    %out_ptrs_130 = arith.muli %out_ptrs_128, %out_ptrs_129 : tensor<1x64xi64> loc(#loc244)
    %out_ptrs_131 = arith.constant 2147483647 : i64 loc(#loc244)
    %out_ptrs_132 = arith.constant -2147483648 : i64 loc(#loc244)
    %out_ptrs_133 = arith.constant dense<2147483647> : tensor<1x64xi64> loc(#loc244)
    %out_ptrs_134 = arith.cmpi sle, %out_ptrs_130, %out_ptrs_133 : tensor<1x64xi64> loc(#loc244)
    %out_ptrs_135 = arith.constant dense<-2147483648> : tensor<1x64xi64> loc(#loc244)
    %out_ptrs_136 = arith.cmpi sge, %out_ptrs_130, %out_ptrs_135 : tensor<1x64xi64> loc(#loc244)
    %out_ptrs_137 = arith.andi %out_ptrs_134, %out_ptrs_136 : tensor<1x64xi1> loc(#loc244)
    %out_ptrs_138 = arith.muli %out_ptrs_124, %out_ptrs_127 : tensor<1x64xi32> loc(#loc244)
    %out_ptrs_139 = tt.broadcast %out_ptrs_123 : tensor<8x1x!tt.ptr<f32>> -> tensor<8x64x!tt.ptr<f32>> loc(#loc245)
    %out_ptrs_140 = tt.broadcast %out_ptrs_138 : tensor<1x64xi32> -> tensor<8x64xi32> loc(#loc245)
    %out_ptrs_141 = tt.addptr %out_ptrs_139, %out_ptrs_140 : tensor<8x64x!tt.ptr<f32>>, tensor<8x64xi32> loc(#loc245)
    %4 = tt.expand_dims %offs_m_21 {axis = 1 : i32} : tensor<8xi32> -> tensor<8x1xi32> loc(#loc96)
    %5 = tt.splat %T : i32 -> tensor<8x1xi32> loc(#loc97)
    %6 = arith.cmpi slt, %4, %5 : tensor<8x1xi32> loc(#loc97)
    %7 = tt.broadcast %6 : tensor<8x1xi1> -> tensor<8x64xi1> loc(#loc98)
    tt.store %out_ptrs_141, %out_88, %7 : tensor<8x64x!tt.ptr<f32>> loc(#loc98)
    %lse_ptrs = arith.extsi %b : i32 to i64 loc(#loc246)
    %lse_ptrs_142 = arith.extsi %lse_stride_b : i32 to i64 loc(#loc246)
    %lse_ptrs_143 = arith.muli %lse_ptrs, %lse_ptrs_142 : i64 loc(#loc246)
    %lse_ptrs_144 = arith.constant 2147483647 : i64 loc(#loc246)
    %lse_ptrs_145 = arith.constant -2147483648 : i64 loc(#loc246)
    %lse_ptrs_146 = arith.cmpi sle, %lse_ptrs_143, %lse_ptrs_144 : i64 loc(#loc246)
    %lse_ptrs_147 = arith.cmpi sge, %lse_ptrs_143, %lse_ptrs_145 : i64 loc(#loc246)
    %lse_ptrs_148 = arith.andi %lse_ptrs_146, %lse_ptrs_147 : i1 loc(#loc246)
    %lse_ptrs_149 = arith.muli %b, %lse_stride_b : i32 loc(#loc246)
    %lse_ptrs_150 = tt.addptr %lse_ptr, %lse_ptrs_149 : !tt.ptr<f32>, i32 loc(#loc247)
    %lse_ptrs_151 = arith.extsi %h : i32 to i64 loc(#loc248)
    %lse_ptrs_152 = arith.extsi %lse_stride_h : i32 to i64 loc(#loc248)
    %lse_ptrs_153 = arith.muli %lse_ptrs_151, %lse_ptrs_152 : i64 loc(#loc248)
    %lse_ptrs_154 = arith.constant 2147483647 : i64 loc(#loc248)
    %lse_ptrs_155 = arith.constant -2147483648 : i64 loc(#loc248)
    %lse_ptrs_156 = arith.cmpi sle, %lse_ptrs_153, %lse_ptrs_154 : i64 loc(#loc248)
    %lse_ptrs_157 = arith.cmpi sge, %lse_ptrs_153, %lse_ptrs_155 : i64 loc(#loc248)
    %lse_ptrs_158 = arith.andi %lse_ptrs_156, %lse_ptrs_157 : i1 loc(#loc248)
    %lse_ptrs_159 = arith.muli %h, %lse_stride_h : i32 loc(#loc248)
    %lse_ptrs_160 = tt.addptr %lse_ptrs_150, %lse_ptrs_159 : !tt.ptr<f32>, i32 loc(#loc249)
    %lse_ptrs_161 = arith.constant 1 : i32 loc(#loc250)
    %lse_ptrs_162 = arith.constant 1 : i32 loc(#loc250)
    %lse_ptrs_163 = arith.constant dense<1> : tensor<8xi32> loc(#loc250)
    %lse_ptrs_164 = arith.extsi %offs_m_21 : tensor<8xi32> to tensor<8xi64> loc(#loc250)
    %lse_ptrs_165 = arith.extsi %lse_ptrs_163 : tensor<8xi32> to tensor<8xi64> loc(#loc250)
    %lse_ptrs_166 = arith.muli %lse_ptrs_164, %lse_ptrs_165 : tensor<8xi64> loc(#loc250)
    %lse_ptrs_167 = arith.constant 2147483647 : i64 loc(#loc250)
    %lse_ptrs_168 = arith.constant -2147483648 : i64 loc(#loc250)
    %lse_ptrs_169 = arith.constant dense<2147483647> : tensor<8xi64> loc(#loc250)
    %lse_ptrs_170 = arith.cmpi sle, %lse_ptrs_166, %lse_ptrs_169 : tensor<8xi64> loc(#loc250)
    %lse_ptrs_171 = arith.constant dense<-2147483648> : tensor<8xi64> loc(#loc250)
    %lse_ptrs_172 = arith.cmpi sge, %lse_ptrs_166, %lse_ptrs_171 : tensor<8xi64> loc(#loc250)
    %lse_ptrs_173 = arith.andi %lse_ptrs_170, %lse_ptrs_172 : tensor<8xi1> loc(#loc250)
    %lse_ptrs_174 = arith.muli %offs_m_21, %lse_ptrs_163 : tensor<8xi32> loc(#loc250)
    %lse_ptrs_175 = tt.splat %lse_ptrs_160 : !tt.ptr<f32> -> tensor<8x!tt.ptr<f32>> loc(#loc251)
    %lse_ptrs_176 = tt.addptr %lse_ptrs_175, %lse_ptrs_174 : tensor<8x!tt.ptr<f32>>, tensor<8xi32> loc(#loc251)
    %8 = tt.splat %T : i32 -> tensor<8xi32> loc(#loc105)
    %9 = arith.cmpi slt, %offs_m_21, %8 : tensor<8xi32> loc(#loc105)
    tt.store %lse_ptrs_176, %lse_89, %9 : tensor<8x!tt.ptr<f32>> loc(#loc106)
    tt.return loc(#loc107)
  } loc(#loc)
  tt.func private @triton.language.standard.zeros__Tc8_c64T_cfp32() -> tensor<8x64xf32> attributes {noinline = false} {
    %cst = arith.constant 0.000000e+00 : f32 loc(#loc109)
    %cst_0 = arith.constant dense<0.000000e+00> : tensor<8x64xf32> loc(#loc109)
    tt.return %cst_0 : tensor<8x64xf32> loc(#loc110)
  ^bb1:  // no predecessors
    %0 = ub.poison : tensor<8x64xf32> loc(#loc111)
    tt.return %0 : tensor<8x64xf32> loc(#loc111)
  } loc(#loc108)
  tt.func private @triton.language.standard.max__fp32S8_16S_c1_cFalse_cTrue_cFalse(%input: tensor<8x16xf32> loc("input"(#loc112))) -> tensor<8xf32> attributes {noinline = false} {
    %0 = "tt.reduce"(%input) <{axis = 1 : i32}> ({
    ^bb0(%arg1: f32 loc(unknown), %arg2: f32 loc(unknown)):
      %2 = tt.call @triton.language.standard._elementwise_max__fp32_fp32(%arg1, %arg2) : (f32, f32) -> f32 loc(#loc113)
      tt.reduce.return %2 : f32 loc(#loc113)
    }) : (tensor<8x16xf32>) -> tensor<8xf32> loc(#loc113)
    tt.return %0 : tensor<8xf32> loc(#loc115)
  ^bb1:  // no predecessors
    %1 = ub.poison : tensor<8xf32> loc(#loc116)
    tt.return %1 : tensor<8xf32> loc(#loc116)
  } loc(#loc112)
  tt.func private @triton.language.standard._elementwise_max__fp32_fp32(%a: f32 loc("a"(#loc117)), %b: f32 loc("b"(#loc117))) -> f32 attributes {noinline = false} {
    %0 = arith.maxnumf %a, %b : f32 loc(#loc118)
    tt.return %0 : f32 loc(#loc119)
  ^bb1:  // no predecessors
    %1 = ub.poison : f32 loc(#loc120)
    tt.return %1 : f32 loc(#loc120)
  } loc(#loc117)
  tt.func private @triton.language.standard.sum__fp32S8_16S_c1_cFalse_cNone(%input: tensor<8x16xf32> loc("input"(#loc121))) -> tensor<8xf32> attributes {noinline = false} {
    %0 = "tt.reduce"(%input) <{axis = 1 : i32}> ({
    ^bb0(%arg1: f32 loc(unknown), %arg2: f32 loc(unknown)):
      %2 = tt.call @triton.language.standard._sum_combine__fp32_fp32(%arg1, %arg2) : (f32, f32) -> f32 loc(#loc122)
      tt.reduce.return %2 : f32 loc(#loc122)
    }) : (tensor<8x16xf32>) -> tensor<8xf32> loc(#loc122)
    tt.return %0 : tensor<8xf32> loc(#loc123)
  ^bb1:  // no predecessors
    %1 = ub.poison : tensor<8xf32> loc(#loc124)
    tt.return %1 : tensor<8xf32> loc(#loc124)
  } loc(#loc121)
  tt.func private @triton.language.standard._sum_combine__fp32_fp32(%a: f32 loc("a"(#loc125)), %b: f32 loc("b"(#loc125))) -> f32 attributes {noinline = false} {
    %0 = arith.addf %a, %b : f32 loc(#loc126)
    tt.return %0 : f32 loc(#loc127)
  ^bb1:  // no predecessors
    %1 = ub.poison : f32 loc(#loc128)
    tt.return %1 : f32 loc(#loc128)
  } loc(#loc125)
} loc(#loc)
#loc1 = loc("C:\\Users\\sachin chaudhary\\frontier-training-lab\\kernels\\flash_attention.py":611:26)
#loc2 = loc("C:\\Users\\sachin chaudhary\\frontier-training-lab\\kernels\\flash_attention.py":612:27)
#loc3 = loc("C:\\Users\\sachin chaudhary\\frontier-training-lab\\kernels\\flash_attention.py":614:18)
#loc4 = loc("C:\\Users\\sachin chaudhary\\frontier-training-lab\\kernels\\flash_attention.py":615:17)
#loc5 = loc("C:\\Users\\sachin chaudhary\\frontier-training-lab\\kernels\\flash_attention.py":617:22)
#loc6 = loc("C:\\Users\\sachin chaudhary\\frontier-training-lab\\kernels\\flash_attention.py":621:36)
#loc7 = loc("C:\\Users\\sachin chaudhary\\frontier-training-lab\\kernels\\flash_attention.py":621:23)
#loc8 = loc("C:\\Users\\sachin chaudhary\\frontier-training-lab\\kernels\\flash_attention.py":622:26)
#loc9 = loc("C:\\Users\\sachin chaudhary\\frontier-training-lab\\kernels\\flash_attention.py":623:26)
#loc10 = loc("C:\\Users\\sachin chaudhary\\frontier-training-lab\\kernels\\flash_attention.py":643:25)
#loc11 = loc("C:\\Users\\sachin chaudhary\\frontier-training-lab\\kernels\\flash_attention.py":643:21)
#loc12 = loc("C:\\Users\\sachin chaudhary\\frontier-training-lab\\kernels\\flash_attention.py":643:42)
#loc13 = loc("C:\\Users\\sachin chaudhary\\frontier-training-lab\\kernels\\flash_attention.py":643:38)
#loc14 = loc("C:\\Users\\sachin chaudhary\\frontier-training-lab\\kernels\\flash_attention.py":643:62)
#loc15 = loc("C:\\Users\\sachin chaudhary\\frontier-training-lab\\kernels\\flash_attention.py":643:74)
#loc16 = loc("C:\\Users\\sachin chaudhary\\frontier-training-lab\\kernels\\flash_attention.py":643:55)
#loc17 = loc("C:\\Users\\sachin chaudhary\\frontier-training-lab\\kernels\\flash_attention.py":643:94)
#loc18 = loc("C:\\Users\\sachin chaudhary\\frontier-training-lab\\kernels\\flash_attention.py":643:105)
#loc19 = loc("C:\\Users\\sachin chaudhary\\frontier-training-lab\\kernels\\flash_attention.py":643:87)
#loc20 = loc("C:\\Users\\sachin chaudhary\\frontier-training-lab\\kernels\\flash_attention.py":648:36)
#loc21 = loc("C:\\Users\\sachin chaudhary\\frontier-training-lab\\kernels\\flash_attention.py":648:47)
#loc22 = loc("C:\\Users\\sachin chaudhary\\frontier-training-lab\\kernels\\flash_attention.py":648:16)
#loc23 = loc("C:\\Users\\sachin chaudhary\\frontier-training-lab\\kernels\\flash_attention.py":653:44)
#loc24 = loc("C:\\Users\\sachin chaudhary\\frontier-training-lab\\kernels\\flash_attention.py":654:34)
#loc25 = loc("C:\\Users\\sachin chaudhary\\frontier-training-lab\\kernels\\flash_attention.py":655:39)
#loc26 = loc("C:\\Users\\sachin chaudhary\\frontier-training-lab\\kernels\\flash_attention.py":657:31)
#loc27 = loc("C:\\Users\\sachin chaudhary\\frontier-training-lab\\kernels\\flash_attention.py":657:26)
#loc28 = loc("C:\\Users\\sachin chaudhary\\frontier-training-lab\\kernels\\flash_attention.py":657:18)
#loc29 = loc("C:\\Users\\sachin chaudhary\\frontier-training-lab\\kernels\\flash_attention.py":661:31)
#loc30 = loc("C:\\Users\\sachin chaudhary\\frontier-training-lab\\kernels\\flash_attention.py":662:22)
#loc31 = loc("C:\\Users\\sachin chaudhary\\frontier-training-lab\\kernels\\flash_attention.py":665:27)
#loc32 = loc("C:\\Users\\sachin chaudhary\\frontier-training-lab\\kernels\\flash_attention.py":665:23)
#loc33 = loc("C:\\Users\\sachin chaudhary\\frontier-training-lab\\kernels\\flash_attention.py":665:44)
#loc34 = loc("C:\\Users\\sachin chaudhary\\frontier-training-lab\\kernels\\flash_attention.py":665:40)
#loc35 = loc("C:\\Users\\sachin chaudhary\\frontier-training-lab\\kernels\\flash_attention.py":665:59)
#loc36 = loc("C:\\Users\\sachin chaudhary\\frontier-training-lab\\kernels\\flash_attention.py":665:70)
#loc37 = loc("C:\\Users\\sachin chaudhary\\frontier-training-lab\\kernels\\flash_attention.py":665:57)
#loc38 = loc("C:\\Users\\sachin chaudhary\\frontier-training-lab\\kernels\\flash_attention.py":665:90)
#loc39 = loc("C:\\Users\\sachin chaudhary\\frontier-training-lab\\kernels\\flash_attention.py":665:101)
#loc40 = loc("C:\\Users\\sachin chaudhary\\frontier-training-lab\\kernels\\flash_attention.py":665:83)
#loc41 = loc("C:\\Users\\sachin chaudhary\\frontier-training-lab\\kernels\\flash_attention.py":668:36)
#loc42 = loc("C:\\Users\\sachin chaudhary\\frontier-training-lab\\kernels\\flash_attention.py":668:47)
#loc43 = loc("C:\\Users\\sachin chaudhary\\frontier-training-lab\\kernels\\flash_attention.py":668:20)
#loc44 = loc("C:\\Users\\sachin chaudhary\\frontier-training-lab\\kernels\\flash_attention.py":671:29)
#loc45 = loc("C:\\Users\\sachin chaudhary\\frontier-training-lab\\kernels\\flash_attention.py":671:25)
#loc46 = loc("C:\\Users\\sachin chaudhary\\frontier-training-lab\\kernels\\flash_attention.py":671:46)
#loc47 = loc("C:\\Users\\sachin chaudhary\\frontier-training-lab\\kernels\\flash_attention.py":671:42)
#loc48 = loc("C:\\Users\\sachin chaudhary\\frontier-training-lab\\kernels\\flash_attention.py":671:61)
#loc49 = loc("C:\\Users\\sachin chaudhary\\frontier-training-lab\\kernels\\flash_attention.py":671:72)
#loc50 = loc("C:\\Users\\sachin chaudhary\\frontier-training-lab\\kernels\\flash_attention.py":671:59)
#loc51 = loc("C:\\Users\\sachin chaudhary\\frontier-training-lab\\kernels\\flash_attention.py":671:92)
#loc52 = loc("C:\\Users\\sachin chaudhary\\frontier-training-lab\\kernels\\flash_attention.py":671:103)
#loc53 = loc("C:\\Users\\sachin chaudhary\\frontier-training-lab\\kernels\\flash_attention.py":671:85)
#loc54 = loc("C:\\Users\\sachin chaudhary\\frontier-training-lab\\kernels\\flash_attention.py":674:37)
#loc55 = loc("C:\\Users\\sachin chaudhary\\frontier-training-lab\\kernels\\flash_attention.py":674:48)
#loc56 = loc("C:\\Users\\sachin chaudhary\\frontier-training-lab\\kernels\\flash_attention.py":674:20)
#loc57 = loc("C:\\Users\\sachin chaudhary\\frontier-training-lab\\kernels\\flash_attention.py":677:36)
#loc58 = loc("C:\\Users\\sachin chaudhary\\frontier-training-lab\\kernels\\flash_attention.py":677:27)
#loc59 = loc("C:\\Users\\sachin chaudhary\\frontier-training-lab\\kernels\\flash_attention.py":677:42)
#loc60 = loc("C:\\Users\\sachin chaudhary\\frontier-training-lab\\kernels\\flash_attention.py":680:28)
#loc61 = loc("C:\\Users\\sachin chaudhary\\frontier-training-lab\\kernels\\flash_attention.py":680:39)
#loc62 = loc("C:\\Users\\sachin chaudhary\\frontier-training-lab\\kernels\\flash_attention.py":680:50)
#loc63 = loc("C:\\Users\\sachin chaudhary\\frontier-training-lab\\kernels\\flash_attention.py":681:33)
#loc64 = loc("C:\\Users\\sachin chaudhary\\frontier-training-lab\\kernels\\flash_attention.py":681:47)
#loc65 = loc("C:\\Users\\sachin chaudhary\\frontier-training-lab\\kernels\\flash_attention.py":681:45)
#loc66 = loc("C:\\Users\\sachin chaudhary\\frontier-training-lab\\kernels\\flash_attention.py":681:65)
#loc67 = loc("C:\\Users\\sachin chaudhary\\frontier-training-lab\\kernels\\flash_attention.py":685:37)
#loc68 = loc("C:\\Users\\sachin chaudhary\\frontier-training-lab\\kernels\\flash_attention.py":685:30)
#loc69 = loc("C:\\Users\\sachin chaudhary\\frontier-training-lab\\kernels\\flash_attention.py":686:27)
#loc70 = loc("C:\\Users\\sachin chaudhary\\frontier-training-lab\\kernels\\flash_attention.py":686:23)
#loc71 = loc("C:\\Users\\sachin chaudhary\\frontier-training-lab\\kernels\\flash_attention.py":687:34)
#loc72 = loc("C:\\Users\\sachin chaudhary\\frontier-training-lab\\kernels\\flash_attention.py":687:28)
#loc73 = loc("C:\\Users\\sachin chaudhary\\frontier-training-lab\\kernels\\flash_attention.py":687:19)
#loc74 = loc("C:\\Users\\sachin chaudhary\\frontier-training-lab\\kernels\\flash_attention.py":689:20)
#loc75 = loc("C:\\Users\\sachin chaudhary\\frontier-training-lab\\kernels\\flash_attention.py":689:35)
#loc76 = loc("C:\\Users\\sachin chaudhary\\frontier-training-lab\\kernels\\flash_attention.py":689:28)
#loc77 = loc("C:\\Users\\sachin chaudhary\\frontier-training-lab\\kernels\\flash_attention.py":690:26)
#loc78 = loc("C:\\Users\\sachin chaudhary\\frontier-training-lab\\kernels\\flash_attention.py":690:20)
#loc79 = loc("C:\\Users\\sachin chaudhary\\frontier-training-lab\\kernels\\flash_attention.py":690:59)
#loc80 = loc("C:\\Users\\sachin chaudhary\\frontier-training-lab\\kernels\\flash_attention.py":690:37)
#loc81 = loc("C:\\Users\\sachin chaudhary\\frontier-training-lab\\kernels\\flash_attention.py":693:8)
#loc82 = loc("C:\\Users\\sachin chaudhary\\frontier-training-lab\\kernels\\flash_attention.py":696:18)
#loc83 = loc("C:\\Users\\sachin chaudhary\\frontier-training-lab\\kernels\\flash_attention.py":696:16)
#loc84 = loc("C:\\Users\\sachin chaudhary\\frontier-training-lab\\kernels\\flash_attention.py":697:21)
#loc85 = loc("C:\\Users\\sachin chaudhary\\frontier-training-lab\\kernels\\flash_attention.py":697:14)
#loc86 = loc("C:\\Users\\sachin chaudhary\\frontier-training-lab\\kernels\\flash_attention.py":702:30)
#loc87 = loc("C:\\Users\\sachin chaudhary\\frontier-training-lab\\kernels\\flash_attention.py":702:26)
#loc88 = loc("C:\\Users\\sachin chaudhary\\frontier-training-lab\\kernels\\flash_attention.py":702:49)
#loc89 = loc("C:\\Users\\sachin chaudhary\\frontier-training-lab\\kernels\\flash_attention.py":702:45)
#loc90 = loc("C:\\Users\\sachin chaudhary\\frontier-training-lab\\kernels\\flash_attention.py":702:71)
#loc91 = loc("C:\\Users\\sachin chaudhary\\frontier-training-lab\\kernels\\flash_attention.py":702:82)
#loc92 = loc("C:\\Users\\sachin chaudhary\\frontier-training-lab\\kernels\\flash_attention.py":702:64)
#loc93 = loc("C:\\Users\\sachin chaudhary\\frontier-training-lab\\kernels\\flash_attention.py":702:104)
#loc94 = loc("C:\\Users\\sachin chaudhary\\frontier-training-lab\\kernels\\flash_attention.py":702:115)
#loc95 = loc("C:\\Users\\sachin chaudhary\\frontier-training-lab\\kernels\\flash_attention.py":702:97)
#loc96 = loc("C:\\Users\\sachin chaudhary\\frontier-training-lab\\kernels\\flash_attention.py":704:41)
#loc97 = loc("C:\\Users\\sachin chaudhary\\frontier-training-lab\\kernels\\flash_attention.py":704:52)
#loc98 = loc("C:\\Users\\sachin chaudhary\\frontier-training-lab\\kernels\\flash_attention.py":704:23)
#loc99 = loc("C:\\Users\\sachin chaudhary\\frontier-training-lab\\kernels\\flash_attention.py":707:30)
#loc100 = loc("C:\\Users\\sachin chaudhary\\frontier-training-lab\\kernels\\flash_attention.py":707:26)
#loc101 = loc("C:\\Users\\sachin chaudhary\\frontier-training-lab\\kernels\\flash_attention.py":707:49)
#loc102 = loc("C:\\Users\\sachin chaudhary\\frontier-training-lab\\kernels\\flash_attention.py":707:45)
#loc103 = loc("C:\\Users\\sachin chaudhary\\frontier-training-lab\\kernels\\flash_attention.py":707:73)
#loc104 = loc("C:\\Users\\sachin chaudhary\\frontier-training-lab\\kernels\\flash_attention.py":707:64)
#loc105 = loc("C:\\Users\\sachin chaudhary\\frontier-training-lab\\kernels\\flash_attention.py":709:42)
#loc106 = loc("C:\\Users\\sachin chaudhary\\frontier-training-lab\\kernels\\flash_attention.py":709:23)
#loc107 = loc("C:\\Users\\sachin chaudhary\\frontier-training-lab\\kernels\\flash_attention.py":709:4)
#loc108 = loc("C:\\Users\\Public\\Miniconda3\\Lib\\site-packages\\triton\\language\\standard.py":120:0)
#loc109 = loc("C:\\Users\\Public\\Miniconda3\\Lib\\site-packages\\triton\\language\\standard.py":129:31)
#loc110 = loc("C:\\Users\\Public\\Miniconda3\\Lib\\site-packages\\triton\\language\\standard.py":129:11)
#loc111 = loc("C:\\Users\\Public\\Miniconda3\\Lib\\site-packages\\triton\\language\\standard.py":129:4)
#loc113 = loc("C:\\Users\\Public\\Miniconda3\\Lib\\site-packages\\triton\\language\\standard.py":191:40)
#loc115 = loc("C:\\Users\\Public\\Miniconda3\\Lib\\site-packages\\triton\\language\\standard.py":191:15)
#loc116 = loc("C:\\Users\\Public\\Miniconda3\\Lib\\site-packages\\triton\\language\\standard.py":179:4)
#loc118 = loc("C:\\Users\\Public\\Miniconda3\\Lib\\site-packages\\triton\\language\\standard.py":170:27)
#loc119 = loc("C:\\Users\\Public\\Miniconda3\\Lib\\site-packages\\triton\\language\\standard.py":170:11)
#loc120 = loc("C:\\Users\\Public\\Miniconda3\\Lib\\site-packages\\triton\\language\\standard.py":170:4)
#loc122 = loc("C:\\Users\\Public\\Miniconda3\\Lib\\site-packages\\triton\\language\\standard.py":293:36)
#loc123 = loc("C:\\Users\\Public\\Miniconda3\\Lib\\site-packages\\triton\\language\\standard.py":293:11)
#loc124 = loc("C:\\Users\\Public\\Miniconda3\\Lib\\site-packages\\triton\\language\\standard.py":293:4)
#loc126 = loc("C:\\Users\\Public\\Miniconda3\\Lib\\site-packages\\triton\\language\\standard.py":263:15)
#loc127 = loc("C:\\Users\\Public\\Miniconda3\\Lib\\site-packages\\triton\\language\\standard.py":263:11)
#loc128 = loc("C:\\Users\\Public\\Miniconda3\\Lib\\site-packages\\triton\\language\\standard.py":263:4)
#loc152 = loc("pid_m"(#loc1))
#loc153 = loc("pid_bh"(#loc2))
#loc154 = loc("b"(#loc3))
#loc155 = loc("h"(#loc4))
#loc156 = loc("q_start"(#loc5))
#loc157 = loc("offs_m"(#loc6))
#loc158 = loc("offs_m"(#loc7))
#loc159 = loc("offs_n"(#loc8))
#loc160 = loc("offs_d"(#loc9))
#loc161 = loc("q_ptrs"(#loc10))
#loc162 = loc("q_ptrs"(#loc11))
#loc163 = loc("q_ptrs"(#loc12))
#loc164 = loc("q_ptrs"(#loc13))
#loc165 = loc("q_ptrs"(#loc14))
#loc166 = loc("q_ptrs"(#loc15))
#loc167 = loc("q_ptrs"(#loc16))
#loc168 = loc("q_ptrs"(#loc17))
#loc169 = loc("q_ptrs"(#loc18))
#loc170 = loc("q_ptrs"(#loc19))
#loc171 = loc("q"(#loc20))
#loc172 = loc("q"(#loc21))
#loc173 = loc("q"(#loc22))
#loc174 = loc("m"(#loc23))
#loc175 = loc("l"(#loc24))
#loc176 = loc("acc"(#loc25))
#loc177 = loc("scale"(#loc26))
#loc178 = loc("scale"(#loc27))
#loc179 = loc("scale"(#loc28))
#loc180 = loc("m"(#loc29))
#loc181 = loc("n"(#loc30))
#loc182 = loc("k_ptrs"(#loc31))
#loc183 = loc("k_ptrs"(#loc32))
#loc184 = loc("k_ptrs"(#loc33))
#loc185 = loc("k_ptrs"(#loc34))
#loc186 = loc("k_ptrs"(#loc35))
#loc187 = loc("k_ptrs"(#loc36))
#loc188 = loc("k_ptrs"(#loc37))
#loc189 = loc("k_ptrs"(#loc38))
#loc190 = loc("k_ptrs"(#loc39))
#loc191 = loc("k_ptrs"(#loc40))
#loc192 = loc("k"(#loc41))
#loc193 = loc("k"(#loc42))
#loc194 = loc("k"(#loc43))
#loc195 = loc("v_ptrs"(#loc44))
#loc196 = loc("v_ptrs"(#loc45))
#loc197 = loc("v_ptrs"(#loc46))
#loc198 = loc("v_ptrs"(#loc47))
#loc199 = loc("v_ptrs"(#loc48))
#loc200 = loc("v_ptrs"(#loc49))
#loc201 = loc("v_ptrs"(#loc50))
#loc202 = loc("v_ptrs"(#loc51))
#loc203 = loc("v_ptrs"(#loc52))
#loc204 = loc("v_ptrs"(#loc53))
#loc205 = loc("v"(#loc54))
#loc206 = loc("v"(#loc55))
#loc207 = loc("v"(#loc56))
#loc208 = loc("scores"(#loc57))
#loc209 = loc("scores"(#loc58))
#loc210 = loc("scores"(#loc59))
#loc211 = loc("scores"(#loc60))
#loc212 = loc("scores"(#loc61))
#loc213 = loc("scores"(#loc62))
#loc214 = loc("scores"(#loc63))
#loc215 = loc("scores"(#loc64))
#loc216 = loc("scores"(#loc65))
#loc217 = loc("scores"(#loc66))
#loc218 = loc("m_new"(#loc67))
#loc219 = loc("m_new"(#loc68))
#loc220 = loc("alpha"(#loc69))
#loc221 = loc("alpha"(#loc70))
#loc222 = loc("p"(#loc71))
#loc223 = loc("p"(#loc72))
#loc224 = loc("p"(#loc73))
#loc225 = loc("l_new"(#loc74))
#loc226 = loc("l_new"(#loc75))
#loc227 = loc("l_new"(#loc76))
#loc228 = loc("acc"(#loc77))
#loc229 = loc("acc"(#loc78))
#loc230 = loc("acc"(#loc79))
#loc231 = loc("acc"(#loc80))
#loc232 = loc("out"(#loc82))
#loc233 = loc("out"(#loc83))
#loc234 = loc("lse"(#loc84))
#loc235 = loc("lse"(#loc85))
#loc236 = loc("out_ptrs"(#loc86))
#loc237 = loc("out_ptrs"(#loc87))
#loc238 = loc("out_ptrs"(#loc88))
#loc239 = loc("out_ptrs"(#loc89))
#loc240 = loc("out_ptrs"(#loc90))
#loc241 = loc("out_ptrs"(#loc91))
#loc242 = loc("out_ptrs"(#loc92))
#loc243 = loc("out_ptrs"(#loc93))
#loc244 = loc("out_ptrs"(#loc94))
#loc245 = loc("out_ptrs"(#loc95))
#loc246 = loc("lse_ptrs"(#loc99))
#loc247 = loc("lse_ptrs"(#loc100))
#loc248 = loc("lse_ptrs"(#loc101))
#loc249 = loc("lse_ptrs"(#loc102))
#loc250 = loc("lse_ptrs"(#loc103))
#loc251 = loc("lse_ptrs"(#loc104))
#loc258 = loc("l"(#loc180))
#loc259 = loc("acc"(#loc258))
